…
I0219 20:24:27.259891 101920 net.cpp:275] The NetState phase (0) differed from the phase (1) specified by a rule in layer mnist
I0219 20:24:27.259891 101920 net.cpp:275] The NetState phase (0) differed from the phase (1) specified by a rule in layer prob
I0219 20:24:27.259891 101920 net.cpp:275] The NetState phase (0) differed from the phase (1) specified by a rule in layer accuracy
I0219 20:24:27.259891 101920 net.cpp:39] Initializing net from parameters: 
name: "LeNet"
layers {
  top: "data"
  top: "label"
  name: "mnist"
  type: DATA
  data_param {
    source: "mnist-train-leveldb"
    batch_size: 100
  }
  include {
    phase: TRAIN
  }
  transform_param {
    scale: 0.00390625
  }
}
layers {
  bottom: "data"
  top: "conv1"
  name: "conv1"
  type: CONVOLUTION
  blobs_lr: 1
  blobs_lr: 2
  convolution_param {
    num_output: 20
    kernel_size: 5
    stride: 1
    weight_filler {
      type: "xavier"
    }
    bias_filler {
      type: "constant"
    }
  }
}
layers {
  bottom: "conv1"
  top: "conv1_bn"
  name: "conv1_bn"
  type: BN
  blobs_lr: 1
  blobs_lr: 1
  weight_decay: 0
  weight_decay: 0
  bn_param {
    scale_filler {
      type: "constant"
      value: 1
    }
    shift_filler {
      type: "constant"
      value: 0
    }
  }
}
layers {
  bottom: "conv1_bn"
  top: "pool1"
  name: "pool1"
  type: POOLING
  pooling_param {
    pool: MAX
    kernel_size: 2
    stride: 2
  }
}
layers {
  bottom: "pool1"
  top: "conv2"
  name: "conv2"
  type: CONVOLUTION
  blobs_lr: 1
  blobs_lr: 2
  convolution_param {
    num_output: 50
    kernel_size: 5
    stride: 1
    weight_filler {
      type: "xavier"
    }
    bias_filler {
      type: "constant"
    }
  }
}
layers {
  bottom: "conv2"
  top: "conv2_bn"
  name: "conv2_bn"
  type: BN
  blobs_lr: 1
  blobs_lr: 1
  weight_decay: 0
  weight_decay: 0
  bn_param {
    scale_filler {
      type: "constant"
      value: 1
    }
    shift_filler {
      type: "constant"
      value: 0
    }
  }
}
layers {
  bottom: "conv2_bn"
  top: "pool2"
  name: "pool2"
  type: POOLING
  pooling_param {
    pool: MAX
    kernel_size: 2
    stride: 2
  }
}
layers {
  bottom: "pool2"
  top: "ip1"
  name: "ip1"
  type: INNER_PRODUCT
  blobs_lr: 1
  blobs_lr: 2
  inner_product_param {
    num_output: 500
    weight_filler {
      type: "xavier"
    }
    bias_filler {
      type: "constant"
    }
  }
}
layers {
  bottom: "ip1"
  top: "ip1"
  name: "relu1"
  type: RELU
}
layers {
  bottom: "ip1"
  top: "ip2"
  name: "ip2"
  type: INNER_PRODUCT
  blobs_lr: 1
  blobs_lr: 2
  inner_product_param {
    num_output: 10
    weight_filler {
      type: "xavier"
    }
    bias_filler {
      type: "constant"
    }
  }
}
layers {
  bottom: "ip2"
  bottom: "label"
  name: "loss"
  type: SOFTMAX_LOSS
  include {
    phase: TRAIN
  }
}
state {
  phase: TRAIN
}
I0219 20:24:27.259891 101920 net.cpp:67] Creating Layer mnist
I0219 20:24:27.259891 101920 net.cpp:356] mnist -> data
I0219 20:24:27.259891 101920 net.cpp:356] mnist -> label
I0219 20:24:27.259891 101920 net.cpp:96] Setting up mnist
I0219 20:24:27.259891 101920 data_layer.cpp:46] Opening leveldb mnist-train-leveldb
I0219 20:24:27.266892 101920 data_layer.cpp:130] output data size: 100,1,28,28
I0219 20:24:27.266892 101920 net.cpp:103] Top shape: 100 1 28 28 (78400)
I0219 20:24:27.266892 101920 net.cpp:103] Top shape: 100 1 1 1 (100)
I0219 20:24:27.266892 101920 net.cpp:67] Creating Layer conv1
I0219 20:24:27.266892 101920 net.cpp:394] conv1 <- data
I0219 20:24:27.266892 101920 net.cpp:356] conv1 -> conv1
I0219 20:24:27.266892 101920 net.cpp:96] Setting up conv1
I0219 20:24:27.529907 101920 net.cpp:103] Top shape: 100 20 24 24 (1152000)
I0219 20:24:27.529907 101920 net.cpp:67] Creating Layer conv1_bn
I0219 20:24:27.529907 101920 net.cpp:394] conv1_bn <- conv1
I0219 20:24:27.529907 101920 net.cpp:356] conv1_bn -> conv1_bn
I0219 20:24:27.529907 101920 net.cpp:96] Setting up conv1_bn
I0219 20:24:27.529907 101920 net.cpp:103] Top shape: 100 20 24 24 (1152000)
I0219 20:24:27.529907 101920 net.cpp:67] Creating Layer pool1
I0219 20:24:27.529907 101920 net.cpp:394] pool1 <- conv1_bn
I0219 20:24:27.529907 101920 net.cpp:356] pool1 -> pool1
I0219 20:24:27.529907 101920 net.cpp:96] Setting up pool1
I0219 20:24:27.529907 101920 net.cpp:103] Top shape: 100 20 12 12 (288000)
I0219 20:24:27.529907 101920 net.cpp:67] Creating Layer conv2
I0219 20:24:27.529907 101920 net.cpp:394] conv2 <- pool1
I0219 20:24:27.529907 101920 net.cpp:356] conv2 -> conv2
I0219 20:24:27.529907 101920 net.cpp:96] Setting up conv2
I0219 20:24:27.529907 101920 net.cpp:103] Top shape: 100 50 8 8 (320000)
I0219 20:24:27.530907 101920 net.cpp:67] Creating Layer conv2_bn
I0219 20:24:27.530907 101920 net.cpp:394] conv2_bn <- conv2
I0219 20:24:27.530907 101920 net.cpp:356] conv2_bn -> conv2_bn
I0219 20:24:27.530907 101920 net.cpp:96] Setting up conv2_bn
I0219 20:24:27.530907 101920 net.cpp:103] Top shape: 100 50 8 8 (320000)
I0219 20:24:27.530907 101920 net.cpp:67] Creating Layer pool2
I0219 20:24:27.530907 101920 net.cpp:394] pool2 <- conv2_bn
I0219 20:24:27.530907 101920 net.cpp:356] pool2 -> pool2
I0219 20:24:27.530907 101920 net.cpp:96] Setting up pool2
I0219 20:24:27.530907 101920 net.cpp:103] Top shape: 100 50 4 4 (80000)
I0219 20:24:27.530907 101920 net.cpp:67] Creating Layer ip1
I0219 20:24:27.530907 101920 net.cpp:394] ip1 <- pool2
I0219 20:24:27.530907 101920 net.cpp:356] ip1 -> ip1
I0219 20:24:27.530907 101920 net.cpp:96] Setting up ip1
I0219 20:24:27.533907 101920 net.cpp:103] Top shape: 100 500 1 1 (50000)
I0219 20:24:27.533907 101920 net.cpp:67] Creating Layer relu1
I0219 20:24:27.533907 101920 net.cpp:394] relu1 <- ip1
I0219 20:24:27.533907 101920 net.cpp:345] relu1 -> ip1 (in-place)
I0219 20:24:27.533907 101920 net.cpp:96] Setting up relu1
I0219 20:24:27.533907 101920 net.cpp:103] Top shape: 100 500 1 1 (50000)
I0219 20:24:27.533907 101920 net.cpp:67] Creating Layer ip2
I0219 20:24:27.534907 101920 net.cpp:394] ip2 <- ip1
I0219 20:24:27.534907 101920 net.cpp:356] ip2 -> ip2
I0219 20:24:27.534907 101920 net.cpp:96] Setting up ip2
I0219 20:24:27.534907 101920 net.cpp:103] Top shape: 100 10 1 1 (1000)
I0219 20:24:27.534907 101920 net.cpp:67] Creating Layer loss
I0219 20:24:27.534907 101920 net.cpp:394] loss <- ip2
I0219 20:24:27.534907 101920 net.cpp:394] loss <- label
I0219 20:24:27.534907 101920 net.cpp:356] loss -> (automatic)
I0219 20:24:27.534907 101920 net.cpp:96] Setting up loss
I0219 20:24:27.534907 101920 net.cpp:103] Top shape: 1 1 1 1 (1)
I0219 20:24:27.534907 101920 net.cpp:109]     with loss weight 1
I0219 20:24:27.534907 101920 net.cpp:170] loss needs backward computation.
I0219 20:24:27.534907 101920 net.cpp:170] ip2 needs backward computation.
I0219 20:24:27.534907 101920 net.cpp:170] relu1 needs backward computation.
I0219 20:24:27.534907 101920 net.cpp:170] ip1 needs backward computation.
I0219 20:24:27.534907 101920 net.cpp:170] pool2 needs backward computation.
…
I0219 20:24:27.534907 101920 solver.cpp:161] Creating test net (#0) specified by net file: lenet_BN_train_valid.prototxt
I0219 20:24:27.535907 101920 net.cpp:275] The NetState phase (1) differed from the phase (0) specified by a rule in layer mnist
I0219 20:24:27.535907 101920 net.cpp:275] The NetState phase (1) differed from the phase (0) specified by a rule in layer loss
I0219 20:24:27.535907 101920 net.cpp:39] Initializing net from parameters: 
name: "LeNet"
layers {
  top: "data"
  top: "label"
  name: "mnist"
  type: DATA
  data_param {
    source: "mnist-test-leveldb"
    batch_size: 100
  }
  include {
    phase: TEST
  }
  transform_param {
    scale: 0.00390625
  }
}
layers {
  bottom: "data"
  top: "conv1"
  name: "conv1"
  type: CONVOLUTION
  blobs_lr: 1
  blobs_lr: 2
  convolution_param {
    num_output: 20
    kernel_size: 5
    stride: 1
    weight_filler {
      type: "xavier"
    }
    bias_filler {
      type: "constant"
    }
  }
}
layers {
  bottom: "conv1"
  top: "conv1_bn"
  name: "conv1_bn"
  type: BN
  blobs_lr: 1
  blobs_lr: 1
  weight_decay: 0
  weight_decay: 0
  bn_param {
    scale_filler {
      type: "constant"
      value: 1
    }
    shift_filler {
      type: "constant"
      value: 0
    }
  }
}
layers {
  bottom: "conv1_bn"
  top: "pool1"
  name: "pool1"
  type: POOLING
  pooling_param {
    pool: MAX
    kernel_size: 2
    stride: 2
  }
}
layers {
  bottom: "pool1"
  top: "conv2"
  name: "conv2"
  type: CONVOLUTION
  blobs_lr: 1
  blobs_lr: 2
  convolution_param {
    num_output: 50
    kernel_size: 5
    stride: 1
    weight_filler {
      type: "xavier"
    }
    bias_filler {
      type: "constant"
    }
  }
}
layers {
  bottom: "conv2"
  top: "conv2_bn"
  name: "conv2_bn"
  type: BN
  blobs_lr: 1
  blobs_lr: 1
  weight_decay: 0
  weight_decay: 0
  bn_param {
    scale_filler {
      type: "constant"
      value: 1
    }
    shift_filler {
      type: "constant"
      value: 0
    }
  }
}
layers {
  bottom: "conv2_bn"
  top: "pool2"
  name: "pool2"
  type: POOLING
  pooling_param {
    pool: MAX
    kernel_size: 2
    stride: 2
  }
}
layers {
  bottom: "pool2"
  top: "ip1"
  name: "ip1"
  type: INNER_PRODUCT
  blobs_lr: 1
  blobs_lr: 2
  inner_product_param {
    num_output: 500
    weight_filler {
      type: "xavier"
    }
    bias_filler {
      type: "constant"
    }
  }
}
layers {
  bottom: "ip1"
  top: "ip1"
  name: "relu1"
  type: RELU
}
layers {
  bottom: "ip1"
  top: "ip2"
  name: "ip2"
  type: INNER_PRODUCT
  blobs_lr: 1
  blobs_lr: 2
  inner_product_param {
    num_output: 10
    weight_filler {
      type: "xavier"
    }
    bias_filler {
      type: "constant"
    }
  }
}
layers {
  bottom: "ip2"
  top: "prob"
  name: "prob"
  type: SOFTMAX
  include {
    phase: TEST
  }
}
layers {
  bottom: "prob"
  bottom: "label"
  top: "accuracy"
  name: "accuracy"
  type: ACCURACY
  include {
    phase: TEST
  }
}
state {
  phase: TEST
}
I0219 20:24:27.535907 101920 net.cpp:67] Creating Layer mnist
I0219 20:24:27.571909 101920 net.cpp:356] mnist -> data
I0219 20:24:27.571909 101920 net.cpp:356] mnist -> label
I0219 20:24:27.571909 101920 net.cpp:96] Setting up mnist
I0219 20:24:27.571909 101920 data_layer.cpp:46] Opening leveldb mnist-test-leveldb
I0219 20:24:27.578910 101920 data_layer.cpp:130] output data size: 100,1,28,28
I0219 20:24:27.578910 101920 net.cpp:103] Top shape: 100 1 28 28 (78400)
I0219 20:24:27.578910 101920 net.cpp:103] Top shape: 100 1 1 1 (100)
I0219 20:24:27.578910 101920 net.cpp:67] Creating Layer conv1
I0219 20:24:27.578910 101920 net.cpp:394] conv1 <- data
I0219 20:24:27.578910 101920 net.cpp:356] conv1 -> conv1
I0219 20:24:27.578910 101920 net.cpp:96] Setting up conv1
I0219 20:24:27.578910 101920 net.cpp:103] Top shape: 100 20 24 24 (1152000)
I0219 20:24:27.578910 101920 net.cpp:67] Creating Layer conv1_bn
I0219 20:24:27.578910 101920 net.cpp:394] conv1_bn <- conv1
I0219 20:24:27.578910 101920 net.cpp:356] conv1_bn -> conv1_bn
I0219 20:24:27.578910 101920 net.cpp:96] Setting up conv1_bn
I0219 20:24:27.578910 101920 net.cpp:103] Top shape: 100 20 24 24 (1152000)
I0219 20:24:27.578910 101920 net.cpp:67] Creating Layer pool1
I0219 20:24:27.578910 101920 net.cpp:394] pool1 <- conv1_bn
I0219 20:24:27.578910 101920 net.cpp:356] pool1 -> pool1
I0219 20:24:27.578910 101920 net.cpp:96] Setting up pool1
I0219 20:24:27.578910 101920 net.cpp:103] Top shape: 100 20 12 12 (288000)
I0219 20:24:27.578910 101920 net.cpp:67] Creating Layer conv2
I0219 20:24:27.578910 101920 net.cpp:394] conv2 <- pool1
I0219 20:24:27.578910 101920 net.cpp:356] conv2 -> conv2
I0219 20:24:27.578910 101920 net.cpp:96] Setting up conv2
I0219 20:24:27.579910 101920 net.cpp:103] Top shape: 100 50 8 8 (320000)
I0219 20:24:27.579910 101920 net.cpp:67] Creating Layer conv2_bn
I0219 20:24:27.579910 101920 net.cpp:394] conv2_bn <- conv2
I0219 20:24:27.579910 101920 net.cpp:356] conv2_bn -> conv2_bn
I0219 20:24:27.579910 101920 net.cpp:96] Setting up conv2_bn
I0219 20:24:27.579910 101920 net.cpp:103] Top shape: 100 50 8 8 (320000)
I0219 20:24:27.579910 101920 net.cpp:67] Creating Layer pool2
I0219 20:24:27.579910 101920 net.cpp:394] pool2 <- conv2_bn
I0219 20:24:27.579910 101920 net.cpp:356] pool2 -> pool2
I0219 20:24:27.579910 101920 net.cpp:96] Setting up pool2
I0219 20:24:27.579910 101920 net.cpp:103] Top shape: 100 50 4 4 (80000)
I0219 20:24:27.579910 101920 net.cpp:67] Creating Layer ip1
I0219 20:24:27.579910 101920 net.cpp:394] ip1 <- pool2
I0219 20:24:27.579910 101920 net.cpp:356] ip1 -> ip1
I0219 20:24:27.579910 101920 net.cpp:96] Setting up ip1
I0219 20:24:27.582911 101920 net.cpp:103] Top shape: 100 500 1 1 (50000)
I0219 20:24:27.582911 101920 net.cpp:67] Creating Layer relu1
I0219 20:24:27.582911 101920 net.cpp:394] relu1 <- ip1
I0219 20:24:27.582911 101920 net.cpp:345] relu1 -> ip1 (in-place)
I0219 20:24:27.582911 101920 net.cpp:96] Setting up relu1
I0219 20:24:27.582911 101920 net.cpp:103] Top shape: 100 500 1 1 (50000)
I0219 20:24:27.582911 101920 net.cpp:67] Creating Layer ip2
I0219 20:24:27.582911 101920 net.cpp:394] ip2 <- ip1
I0219 20:24:27.582911 101920 net.cpp:356] ip2 -> ip2
I0219 20:24:27.582911 101920 net.cpp:96] Setting up ip2
I0219 20:24:27.582911 101920 net.cpp:103] Top shape: 100 10 1 1 (1000)
I0219 20:24:27.582911 101920 net.cpp:67] Creating Layer prob
I0219 20:24:27.582911 101920 net.cpp:394] prob <- ip2
I0219 20:24:27.582911 101920 net.cpp:356] prob -> prob
I0219 20:24:27.582911 101920 net.cpp:96] Setting up prob
I0219 20:24:27.582911 101920 net.cpp:103] Top shape: 100 10 1 1 (1000)
I0219 20:24:27.582911 101920 net.cpp:67] Creating Layer accuracy
I0219 20:24:27.582911 101920 net.cpp:394] accuracy <- prob
I0219 20:24:27.582911 101920 net.cpp:394] accuracy <- label
I0219 20:24:27.582911 101920 net.cpp:356] accuracy -> accuracy
I0219 20:24:27.582911 101920 net.cpp:96] Setting up accuracy
I0219 20:24:27.582911 101920 net.cpp:103] Top shape: 1 1 1 1 (1)
I0219 20:24:27.582911 101920 net.cpp:172] accuracy does not need backward computation.
I0219 20:24:27.582911 101920 net.cpp:172] prob does not need backward computation.
I0219 20:24:27.635913 101920 net.cpp:172] ip2 does not need backward computation.
I0219 20:24:27.635913 101920 net.cpp:172] relu1 does not need backward computation.
I0219 20:24:27.635913 101920 net.cpp:172] ip1 does not need backward computation.
…
